…
layer = Dense(1,name='out_layer')(layer)
layer = Activation('sigmoid')(layer)

6. Create Model

model = Model(inputs=inputs,outputs=layer)

7. Compile the Model

model.summary()
model.compile(loss='binary_crossentropy',optimizer=RMSprop(),metrics=['accuracy'])

Model: "model"
_________________________________________________________________
 Layer (type)                Output Shape              Param #   
=================================================================
 inputs (InputLayer)         [(None, 150)]             0         
                                                                 
 embedding (Embedding)       (None, 150, 50)           50000     
                                                                 
 lstm (LSTM)                 (None, 64)                29440     
                                                                 
 FC1 (Dense)                 (None, 256)               16640     
                                                                 
 activation (Activation)     (None, 256)               0         
                                                                 
 dropout (Dropout)           (None, 256)               0         
                                                                 
 out_layer (Dense)           (None, 1)                 257       
                                                                 
 activation_1 (Activation)   (None, 1)                 0         
                                                                 
=================================================================
Total params: 96,337
Trainable params: 96,337
Non-trainable params: 0
_________________________________________________________________

8.Fit the Model

model.fit(sequences_matrix,Y_train,batch_size=128,epochs=10,validation_split=0.2,callbacks=[EarlyStopping(monitor='val_loss',min_delta=0.0001)])
…
